…
STRIDE 391
STRIDE 393
STRIDE 394
STRIDE 395
STRIDE 397
STRIDE 398
STRIDE 399
STRIDE 401
STRIDE 402
STRIDE 403
STRIDE 405
STRIDE 406
STRIDE 407
STRIDE 409
STRIDE 410
STRIDE 411
STRIDE 413
STRIDE 414
STRIDE 415
STRIDE 417
STRIDE 418
STRIDE 419
STRIDE 421
STRIDE 422
STRIDE 423
STRIDE 425
STRIDE 426
STRIDE 427
STRIDE 429
STRIDE 430
STRIDE 431
STRIDE 433
STRIDE 434
STRIDE 435
STRIDE 437
STRIDE 438
STRIDE 439
STRIDE 441
STRIDE 442
STRIDE 443
STRIDE 445
STRIDE 446
STRIDE 447
STRIDE 449
STRIDE 450
STRIDE 451
STRIDE 453
STRIDE 454
GNN_maker_HNN(
  (entry): Sin()
  (net): Sequential(
    (0): GATLayer(
      (fc): Linear(in_features=4, out_features=128, bias=False)
      (attn_fc): Linear(in_features=256, out_features=1, bias=False)
      (att_drop): Dropout(p=0.65, inplace=False)
    )
    (1): Tanh()
    (2): GATLayer(
      (fc): Linear(in_features=128, out_features=16, bias=False)
      (attn_fc): Linear(in_features=32, out_features=1, bias=False)
      (att_drop): Dropout(p=0.65, inplace=False)
    )
  )
)
HNN(
  (entry): Sin()
  (NN): mlp(
    (net): Sequential(
      (0): Linear(in_features=12, out_features=128, bias=True)
      (1): Tanh()
      (2): Linear(in_features=128, out_features=1, bias=True)
    )
  )
)
rollout_GNN_GRU(
  (GRU): GRU(4, 128)
  (GNN): GNN_maker_HNN(
    (entry): Sin()
    (net): Sequential(
      (0): GATLayer(
        (fc): Linear(in_features=128, out_features=16, bias=False)
        (attn_fc): Linear(in_features=32, out_features=1, bias=False)
        (att_drop): Dropout(p=0.65, inplace=False)
      )
      (1): Tanh()
      (2): GATLayer(
        (fc): Linear(in_features=16, out_features=4, bias=False)
        (attn_fc): Linear(in_features=8, out_features=1, bias=False)
        (att_drop): Dropout(p=0.65, inplace=False)
      )
    )
  )
)
max train batches: 94
max test batches: 10
####################################################
EPOCH: 1 at 287.7613422870636
              train                    test
GHNN
   rollout     0.5653756856918335                      0.5537222027778625
   vector      3.237092971801758                      3.089369297027588
…
