…
STRIDE 730
STRIDE 731
STRIDE 733
STRIDE 734
STRIDE 735
STRIDE 737
STRIDE 738
STRIDE 739
STRIDE 741
STRIDE 742
STRIDE 743
STRIDE 745
STRIDE 746
STRIDE 747
STRIDE 749
STRIDE 750
STRIDE 751
STRIDE 753
STRIDE 754
STRIDE 755
STRIDE 757
STRIDE 758
STRIDE 759
STRIDE 761
STRIDE 762
STRIDE 763
STRIDE 765
STRIDE 766
STRIDE 767
STRIDE 769
STRIDE 770
STRIDE 771
STRIDE 773
STRIDE 774
STRIDE 775
STRIDE 777
STRIDE 778
STRIDE 779
STRIDE 781
STRIDE 782
STRIDE 783
STRIDE 785
STRIDE 786
STRIDE 787
STRIDE 789
STRIDE 790
STRIDE 791
STRIDE 793
GNN_maker_HNN(
  (entry): Sin()
  (net): Sequential(
    (0): GATLayer(
      (fc): Linear(in_features=4, out_features=128, bias=False)
      (attn_fc): Linear(in_features=256, out_features=1, bias=False)
      (att_drop): Dropout(p=0.65, inplace=False)
    )
    (1): Tanh()
    (2): GATLayer(
      (fc): Linear(in_features=128, out_features=16, bias=False)
      (attn_fc): Linear(in_features=32, out_features=1, bias=False)
      (att_drop): Dropout(p=0.65, inplace=False)
    )
  )
)
HNN(
  (entry): Sin()
  (NN): mlp(
    (net): Sequential(
      (0): Linear(in_features=12, out_features=128, bias=True)
      (1): Tanh()
      (2): Linear(in_features=128, out_features=1, bias=True)
    )
  )
)
rollout_GNN_GRU(
  (GRU): GRU(4, 128)
  (GNN): GNN_maker_HNN(
    (entry): Sin()
    (net): Sequential(
      (0): GATLayer(
        (fc): Linear(in_features=128, out_features=16, bias=False)
        (attn_fc): Linear(in_features=32, out_features=1, bias=False)
        (att_drop): Dropout(p=0.65, inplace=False)
      )
      (1): Tanh()
      (2): GATLayer(
        (fc): Linear(in_features=16, out_features=4, bias=False)
        (attn_fc): Linear(in_features=8, out_features=1, bias=False)
        (att_drop): Dropout(p=0.65, inplace=False)
      )
    )
  )
)
max train batches: 163
max test batches: 18
####################################################
EPOCH: 1 at 437.7343065738678
              train                    test
GHNN
   rollout     0.7070261240005493                      0.7098237872123718
   vector      1.2417572736740112                      1.143587589263916
…
